app/src/main/assets/converted_model.tflite (tflite, 50388 bytes, 8 tensors)

sequential_2/dense_9/BiasAdd/ReadVariableOp f4 [64]
0	0x3dbe1d4b	0.09282931
1	0x3dc257e4	0.0948942
2	0x3e3a099e	0.18167731
3	0x3e0c69bb	0.13712208
4	0xbd9aceec	-0.075589985
5	0x3e478a97	0.19486462
6	0x3d77e316	0.0605193
7	0xbc28b9fb	-0.010298247
8	0x3df9ce1d	0.12197516
9	0x3cf96dcd	0.030447865
10	0x3e4fcad7	0.20292221
11	0x3e9146af	0.2837424
12	0x3e540977	0.20706736
13	0x3eb1f987	0.34760687
14	0x3d97ef1c	0.07418653
15	0x3dfb0893	0.12257495
16	0x3e39dd1f	0.18150757
17	0x3e581d1d	0.21104856
18	0x3e5fbe31	0.21849896
19	0xbd3b74a9	-0.045765553
20	0x3c6e4cec	0.014544707
21	0x3e0234f1	0.12715508
22	0xbdccac64	-0.099938184
23	0x3dc8ec08	0.098106444
24	0x3e1d6074	0.15368825
25	0x3e6a0171	0.22852112
26	0x3a8c5f18	0.0010709492
27	0xba68f471	-0.0008886522
28	0x3e203e0c	0.15648669
29	0xbdc25c94	-0.09490314
30	0x3d09737b	0.033557396
31	0x3d138291	0.03601319
32	0x3e6768cb	0.22598569
33	0x3e22d468	0.15901339
34	0xbdef161a	-0.116741374
35	0x3e4d9130	0.20074916
36	0x3dbfa52f	0.09357678
37	0xbcad1939	-0.021130191
38	0x3d82f229	0.06393845
39	0x3cccbb01	0.024991514
40	0x3e1b3f7c	0.15160936
41	0x3d55585d	0.052086223
42	0x3cf9004e	0.030395653
43	0x3e0fa038	0.14025962
44	0xbcb9d838	-0.022686109
45	0x3e1c3a59	0.15256633
46	0x3dbefcda	0.09325571
47	0xba9e6215	-0.0012083674
48	0x3ea9bb69	0.33150795
49	0x3dec34a6	0.115334794
50	0x3ded4c98	0.11586875
51	0x3d978083	0.073975585
52	0xbdbcf6ee	-0.092267856
53	0xbe5f32bb	-0.21796696
54	0x3da07935	0.078356184
55	0x3e34f9cc	0.17673415
56	0x3d74dbd1	0.059779946
57	0x3e1cd8cb	0.15317075
58	0xbd6494bd	-0.05580591
59	0x3e540eb4	0.20708734
60	0x3c472fde	0.0121574085
61	0x3e5154a6	0.20442447
62	0xbd343049	-0.04399136
63	0xbd9495ad	-0.07255111

sequential_2/dense_10/BiasAdd/ReadVariableOp f4 [32]
0	0x3d5516f3	0.05202384
1	0xbddbeff2	-0.10739125
2	0x3e3f0c0b	0.18656938
3	0x3d46d37a	0.048541524
4	0xbd59f3db	-0.053211074
5	0xbd9bbff0	-0.076049685
6	0xbcd7597b	-0.026287785
7	0x3d0e74fa	0.034779526
8	0x3de9e7e7	0.11421185
9	0xbd111595	-0.035420973
10	0x3e1b97fc	0.15194696
11	0x3e55637d	0.20838733
12	0x3cf1065f	0.029421983
13	0x3cdfa3c5	0.027299771
14	0x3dbc77bd	0.09202526
15	0x3de76db8	0.11300224
16	0xbe2fb72a	-0.17159715
17	0x3e021d46	0.1270648
18	0x3d2aecfd	0.041729916
19	0x00000000	0.0
20	0x3e39f024	0.18158013
21	0x3dd5c543	0.10438015
22	0xbd3a719d	-0.045518506
23	0x3e54cffb	0.20782463
24	0x00000000	0.0
25	0x3b37680a	0.0027985596
26	0x3e41108b	0.18853967
27	0x3d079d59	0.033109043
28	0x3ea0fb3e	0.31441683
29	0x3e122e07	0.1427537
30	0x3d680e7b	0.056654435
31	0x3c3ad3d6	0.011403045

sequential_2/dense_11/BiasAdd/ReadVariableOp f4 [22]
0	0x3cb8e750	0.022571236
1	0xbdb1494a	-0.08656557
2	0x3daaab97	0.083335094
3	0xbdb6f08c	-0.089325994
4	0x3d1ad88d	0.037804175
5	0xbdac0a5a	-0.08400412
6	0xbdf4e995	-0.11958615
7	0xbc8145b1	-0.015780302
8	0x3e393a2e	0.180886
9	0xbe1c83b6	-0.15284619
10	0x3dc6f694	0.09715
11	0x3d8293db	0.063758574
12	0x3d19920e	0.037492804
13	0xbc5b4b6e	-0.013384683
14	0x3e1dce99	0.15410842
15	0xbc939eee	-0.01802012
16	0xbe19e3fe	-0.15028378
17	0xbdcc5a7c	-0.09978196
18	0xbe1ebe09	-0.1550218
19	0x3da89a74	0.082325846
20	0x3da2c9f7	0.07948678
21	0xbcbfd3df	-0.023416458

sequential_2/dense_8/BiasAdd/ReadVariableOp f4 [128]
0	0x3e1d15f2	0.15340403
1	0x3e9b1679	0.30290583
2	0x3d7f78bb	0.062370997
3	0x3e69e2b5	0.22840388
4	0xbe5506e2	-0.20803407
5	0xbc1fa46e	-0.009743793
6	0xbddc77a2	-0.10765006
7	0xbddb4a0b	-0.10707482
8	0x3e291c64	0.16514736
9	0x3e85223c	0.2600268
10	0xbdb9d1e3	-0.09073236
11	0x3dd6822c	0.10474047
12	0x3d7bac03	0.06144334
13	0x3da21819	0.079147525
14	0x3e0ece1f	0.13945816
15	0x3e63fbc5	0.22264011
16	0xbcd9a6fc	-0.026568882
17	0xbd403c4e	-0.04693251
18	0x3e7a003d	0.24414153
19	0x3c0ba9db	0.008524383
20	0x3d381e67	0.04495087
21	0xbdc6d17f	-0.09707927
22	0xbde95680	-0.11393452
23	0x3e161d12	0.14659527
24	0xbd3d704a	-0.046249665
25	0x3e957d08	0.29196954
26	0xbdad9fab	-0.0847772
27	0xbde1e311	-0.110296376
28	0x3d1b7ace	0.037958913
29	0xbdca0090	-0.098633885
30	0x3e0566f6	0.13027558
31	0xbdbf2ed3	-0.09335103
32	0x3db1cbf1	0.08681477
33	0xbd12b2c4	-0.035815015
34	0xbe4ac5fd	-0.19802089
35	0xbd52d37c	-0.05147122
36	0x3e57926a	0.21051946
37	0xbdc12107	-0.094301276
38	0x3e4d9979	0.20078076
39	0x3eaf8a5c	0.34285247
40	0xbc53340b	-0.012890826
41	0x3e5f868f	0.21828674
42	0x3c9d494f	0.019199995
43	0x3e28504f	0.16436885
44	0xbb834420	-0.004005924
45	0xbd6065ee	-0.054784708
46	0x3d076618	0.03305635
47	0x3e239771	0.15975739
48	0x3cb468a5	0.022022555
49	0xbe33c3b6	-0.17555127
50	0x3d904c46	0.07045798
51	0x3e3c3b2f	0.18381952
52	0x3cf101ff	0.029419897
53	0xbe1640ac	-0.14673108
54	0xbe1ecd56	-0.15508017
55	0xbca5062e	-0.020144548
56	0x3dba3a58	0.090931594
57	0x3dbc84d8	0.092050254
58	0xbd4f1577	-0.05055758
59	0x3e87a58a	0.26493484
60	0x3db59f0d	0.08868227
61	0x3e45f7cd	0.1933281
62	0x3dc032ea	0.09384711
63	0x3de5ca44	0.1122022
64	0xbc9f72d8	-0.019463941
65	0x3cd95ef7	0.02653454
66	0x3e559c40	0.20860386
67	0x3e457d7f	0.19286154
68	0xbe192334	-0.14954835
69	0x3e6bf6b8	0.23043334
70	0x3e2289fe	0.15872952
71	0x3dd9f771	0.10642899
72	0x3eb0eeea	0.34557277
73	0xbcdabdc7	-0.026701821
74	0x3e3e4a85	0.18583114
75	0x3eacad8a	0.3372615
76	0xbcc432d8	-0.023950025
77	0x3e62e257	0.22156654
78	0x3e5f4234	0.21802598
79	0x3db8e23a	0.09027524
80	0x3c82dd23	0.015974587
81	0x3c3e83ba	0.011628086
82	0x3e237da6	0.159659
83	0xbce54e44	-0.027991422
84	0x3e4a0790	0.19729447
85	0x3dad2a2c	0.08455309
86	0x3e2ade13	0.16686277
87	0xbd61a6f1	-0.05509085
88	0x3e8407d5	0.25787225
89	0xbdacbbcd	-0.08434258
90	0x3dfa91fa	0.12234874
91	0x3e5fa7ca	0.2184135
92	0xbddbe35b	-0.10736724
93	0x3db5aaf6	0.08870499
94	0xbdab37a7	-0.08360224
95	0xbcd5154c	-0.026011132
96	0x3cdaa1e1	0.026688518
97	0xbe17b9a5	-0.14816912
98	0x3d3c04da	0.045903064
99	0x3caec31f	0.021333275
100	0x3dbfebb3	0.09371128
101	0xbc0227b5	-0.007944037
102	0x3d8244f0	0.06360805
103	0x3dfcd3fe	0.12345122
104	0x3dd2997a	0.102831796
105	0x3e52ade4	0.20574147
106	0xbe31a1e9	-0.1734692
107	0xbcd2368b	-0.025660774
108	0x3e5452d4	0.20734721
109	0x3df32663	0.11872556
110	0xbd9156d6	-0.07096641
111	0x3e38ec8f	0.1805899
112	0x3dcfaadd	0.101400115
113	0x3e9160f6	0.28394288
114	0x3e501caf	0.20323442
115	0xbe1f8bfd	-0.15580745
116	0x3e72a733	0.23696594
117	0xbe0313d6	-0.12800536
118	0x3df1f37f	0.11814021
119	0x3cf78321	0.030213894
120	0x3c825c43	0.015913134
121	0x3c70f928	0.014707841
122	0xbd048819	-0.032356355
123	0x3eb3345a	0.3500088
124	0x3c481a05	0.012213235
125	0x3e3e76b2	0.18599966
126	0xbdef876b	-0.11695751
127	0x3e3b9b5c	0.18320984

sequential_2/dense_8/MatMul f4 [128, 6]
0	0xbe5736d1	-0.21017005
1	0x3eaffc7c	0.34372318
2	0xbde5f683	-0.11228659
3	0x3d5310e6	0.051529787
4	0x3e16651f	0.14687012
5	0x3e8d6008	0.2761233
6	0xbd0ffcab	-0.035153072
7	0x3ea77e1e	0.32713407
8	0x3ce9d713	0.028544938
9	0x3e2ee392	0.17078999
10	0xbad9d7b9	-0.0016620076
11	0x3e4451b5	0.19171794
12	0xbde18123	-0.11010959
13	0xbda40464	-0.0800865
14	0xbef63e95	-0.4809462
15	0xbe0cb98c	-0.13742656
16	0xbf021497	-0.5081267
17	0x3c80ff89	0.015746849
18	0xbe0200d7	-0.12695633
19	0x3e486b68	0.19572222
20	0x3e7076e4	0.23482853
21	0xbe0e3c5c	-0.13890213
22	0x3e3d880e	0.18508932
23	0x3db1ff4c	0.08691272
24	0xbd0d7a70	-0.034540594
25	0xbe65ccc5	-0.22441395
26	0x3e4dbea7	0.2009226
27	0x3e184ab4	0.14872247
28	0x3ef83092	0.48474556
29	0xbb942d4e	-0.0045220023
30	0xbdc905f1	-0.09815586
31	0x3cb67bce	0.022275832
32	0xbee054f4	-0.43814814
33	0x3eedda36	0.46455544
34	0x3e84c2cd	0.2592987
35	0x3e11fec3	0.1425734
36	0x3de0cdba	0.10976739
37	0xbebd7149	-0.37000492
38	0x3c0d10cc	0.008609962
39	0x3ecd8516	0.401406
40	0x3e20fcd3	0.15721445
41	0xbcbea70b	-0.023273012
42	0x3ea60cd9	0.32431677
43	0x3e3d853e	0.18507859
44	0xbcceeb8b	-0.0252588
45	0x3dffcb65	0.12489966
46	0x3e32783b	0.17428677
47	0xbdbe349a	-0.09287377
48	0x3d53019d	0.05151521
49	0x3e74f624	0.2392202
50	0x3e8d714a	0.27625495
51	0xbe6381df	-0.2221751
52	0x3e4bd3d6	0.19905028
53	0xbe77645c	-0.24159378
54	0xbdeccd08	-0.11562544
55	0x3e5dd313	0.2166255
56	0xbe9ee5e3	-0.31034765
57	0xbe031e88	-0.12804615
58	0x3eb213e2	0.34780794
59	0x3b994c28	0.004678268
60	0x3ae54689	0.0017492335
61	0x3e447a63	0.19187312
62	0x3dd1b3f1	0.10239399
63	0x3db82f34	0.08993378
64	0xbf109019	-0.56469876
65	0x3e2cef0d	0.16888066
66	0x3d969bbc	0.07353923
67	0x3ea2423d	0.3169116
68	0xbed103a5	-0.40823093
69	0x3e96ff93	0.29491863
70	0x3ea62770	0.32451963
71	0xbdab179c	-0.083541125
72	0xbe238936	-0.1597031
73	0x3ea70c4b	0.32626566
74	0x3dad07c6	0.08448748
75	0x3e922bd0	0.2854905
76	0x3e65d601	0.22444917
77	0xbcbf4871	-0.023349972
78	0xbe9261eb	-0.2859033
79	0x3ea76d5d	0.32700625
80	0xbe4110a9	-0.18854012
81	0xbd60ae2e	-0.05485361
82	0x3d681678	0.056662053
83	0x3d7b2b13	0.061320376
84	0x3bb8e681	0.0056427126
85	0x3da8dd74	0.08245364
86	0x3b96d903	0.0046035065
87	0xbe5bfaae	-0.21482345
88	0xbef66f35	-0.4813172
89	0x3c4f2451	0.012642936
90	0xbe27c3a3	-0.16383223
91	0x3e5904e0	0.21193266
92	0xbdec92ff	-0.11551475
93	0x3cb2ffc6	0.021850478
94	0x3eb2c94b	0.349192
95	0x3e20958b	0.15682046
96	0xbe24fe55	-0.16112645
97	0xbddc13ea	-0.10745986
98	0x3e094e4c	0.13408774
99	0x3e514e2a	0.20439973
100	0x3e2ae14f	0.16687511
101	0xbf19b422	-0.60040486
102	0xbe280392	-0.16407612
103	0xbe117344	-0.14204127
104	0x3e811d12	0.2521749
105	0x3dff5440	0.12467241
106	0xbee7efe4	-0.4530021
107	0xbdfe9b37	-0.12431949
108	0xbe3f9df5	-0.187126
109	0xbe823233	-0.25428924
110	0x3e237b7c	0.15965074
111	0xbf084fe7	-0.5324692
112	0x3e58b203	0.21161656
113	0x3e74fe46	0.23925123
114	0x3e4e4851	0.20144774
115	0xbe8340c9	-0.25635365
116	0x3ea2a06c	0.31763017
117	0x3c281765	0.010259484
118	0x3ebbea13	0.36702022
119	0x3d9d2a61	0.07674099
120	0xbc17486a	-0.009233573
121	0x3e42597a	0.18979445
122	0xbe502ae2	-0.20328858
123	0x3e752852	0.23941162
124	0xbdca219a	-0.0986969
125	0xbe9f4adc	-0.311118
126	0xbd0ea502	-0.034825332
127	0xbe819074	-0.2530552
128	0x3e26ca59	0.16288127
129	0x3d9372fc	0.07199666
130	0x3f0e3b81	0.55559546
131	0x3c82642e	0.01591691
132	0x3e70ff7a	0.23534957
133	0xbea34782	-0.31890494
134	0x3c6c4e70	0.014422998
135	0xbe231182	-0.15924647
136	0xbd41413a	-0.047181346
137	0x3ed57e06	0.4169771
138	0x3eafba67	0.343219
139	0x3e7aded0	0.24499059
140	0x3dc6b7ca	0.09703024
141	0x3e85ada2	0.26109034
142	0xbee7c3a5	-0.45266452
143	0x3e2653b6	0.1624287
144	0x3dc04998	0.09389037
145	0xbba9b161	-0.005178616
146	0x3a4d52d4	0.0007832472
147	0xbed02e1b	-0.40660176
148	0x3e2c9146	0.16852292
149	0xbeaee3a8	-0.34158063
150	0xbe3cbf81	-0.18432428
151	0xbf01c626	-0.50692976
152	0x3cae18ba	0.021252025
153	0x3da9a6f9	0.08283801
154	0x3e8865d7	0.26640198
155	0xbde18ae8	-0.110128224
156	0x3df95633	0.12174644
157	0xbef9009d	-0.4863328
158	0xbeb3d49c	-0.35123146
159	0xbc967ee4	-0.018371053
160	0x3ce7dd20	0.028303683
161	0xbe04e4bf	-0.12977885
162	0xbec8586f	-0.3912997
163	0xbee09c69	-0.4386933
164	0xbe9a14e9	-0.30094078
165	0x3c739817	0.014867804
166	0x3d66e149	0.056367192
167	0xbc5c67f0	-0.013452515
168	0xbe0b9a02	-0.13632968
169	0xbc89b037	-0.016807659
170	0xbf0d6668	-0.55234385
171	0x3c8bffe6	0.017089795
172	0x3e856a7b	0.260578
173	0xbe182764	-0.14858776
174	0xbe9c218d	-0.30494347
175	0xbc98b6d4	-0.018641867
176	0x3d87140a	0.06595619
177	0x3e5cc236	0.2155846
178	0xbe3f1662	-0.18660882
179	0xbe88e4bb	-0.26737007
180	0xbe1ef27e	-0.15522191
181	0x3dd5e71d	0.10444472
182	0xbf06cce8	-0.5265641
183	0xbe67072d	-0.22561331
184	0xbe760f3c	-0.24029249
185	0x3cbe391f	0.023220597
186	0xbd0f3bfb	-0.03496931
187	0x3dd6cb7b	0.104880296
188	0x3e8d4fa2	0.27599818
189	0x3e9a4f9c	0.30138862
190	0xbe8c486f	-0.27399012
191	0x3e827508	0.25479913
192	0x3d3601ea	0.04443542
193	0x3c636936	0.013880065
194	0xbebe4daf	-0.37168643
195	0xbe7d8ca6	-0.24760684
196	0x3e144c61	0.14482261
197	0x3e952ec2	0.29137236
198	0xbe3dcb2d	-0.18534537
199	0x3cb30d05	0.021856794
200	0x3e0eaba1	0.13932659
201	0x3e3ff0f4	0.1874426
202	0xbf0f18b4	-0.5589707
203	0xbe293ac4	-0.16526324
204	0x3ca7b184	0.020470388
205	0x3d6f1139	0.058366034
206	0x3dc7a4ff	0.097482674
207	0x3e84359d	0.25822154
208	0x3ef231c6	0.473036
209	0xbc93e83a	-0.01805507
210	0x3d9142c9	0.070928164
211	0xbea0a9d9	-0.31379583
212	0xbf21ab0b	-0.63151616
213	0x3dd6037d	0.10449884
214	0xbe60081c	-0.21878093
215	0x3d673ba3	0.05645336
216	0x3ea0bdb6	0.31394738
217	0x3e8c3156	0.2738139
218	0xbea3c626	-0.31987113
219	0x3d23d5be	0.039998762
220	0x3dd1debb	0.102475606
221	0x3e0cb46a	0.13740698
222	0x3e5fca4a	0.21854511
223	0xbe77d0eb	-0.2420079
224	0xbf0e0e06	-0.5549015
225	0xbd3b6d39	-0.04575846
226	0x3d564291	0.052309576
227	0x3e0f0daa	0.13970056
228	0x3e3a70c9	0.18207087
229	0x3d58eff2	0.052963205
230	0x3ea6d56a	0.32584697
231	0xbe8f2b59	-0.2796276
232	0xbe8831ba	-0.26600438
233	0x3ba43320	0.0050109774
234	0xbd94ed03	-0.07271769
235	0xbe65e42b	-0.2245032
236	0x3e238be8	0.15971339
237	0xbe82cf82	-0.2554894
238	0xbebf8bea	-0.37411433
239	0x3b026fb1	0.0019903
240	0xbe51d598	-0.20491636
241	0x3e51149f	0.20418023
242	0xbe7b551c	-0.24544185
243	0xbe3beec2	-0.18352798
244	0x3ea1ab14	0.31575835
245	0xbc428c58	-0.011874281
246	0xbe059c2b	-0.13047855
247	0x3dc8d3a9	0.09805996
248	0xbecab4f6	-0.39591187
249	0xbd0c8bfd	-0.03431319
250	0xbebe5b02	-0.37178808
251	0x3d40ce77	0.0470719
252	0x3e91ab58	0.28451037
253	0xbe566405	-0.20936592
254	0x3e6ec2f5	0.23316558
255	0x3e0b5ceb	0.13609664

sequential_2/dense_9/MatMul f4 [64, 128]
0	0x3ce6466e	0.028109755
1	0x3d72082c	0.059089825
2	0x3df0d001	0.117584236
3	0x3de051d9	0.10953111
4	0xbcf8de65	-0.030379483
5	0xbcec9fe4	-0.028884836
6	0x3e299be0	0.16563368
7	0xbe2cac3d	-0.16862579
8	0x3cbcde83	0.02305532
9	0xbdbdbb4b	-0.09264239
10	0x3d9ea5f0	0.07746494
11	0xbdccb767	-0.09995919
12	0xbdac1e03	-0.08404162
13	0x3e77ba55	0.24192174
14	0x3da28012	0.07934584
15	0x3c15b3a3	0.009137067
16	0xbcfdb85b	-0.030971697
17	0x3e5eed7d	0.21770282
18	0x3c86e755	0.01646773
19	0x3d86078b	0.065444075
20	0x3dedf37d	0.11618707
21	0xbe2aa12f	-0.16663049
22	0x3d265fb4	0.040618613
23	0x3e8bbe2b	0.27293524
24	0x3e1d2762	0.15347055
25	0x3e59f201	0.21283723
26	0x3d961051	0.07327331
27	0x3ea3d480	0.31998062
28	0x3de151d8	0.110019386
29	0x3d52186b	0.051292818
30	0x3e0b57f8	0.13607776
31	0xbd36db5a	-0.044642784
32	0x3d8f9e5b	0.07012626
33	0x3e05a3fa	0.13050833
34	0xbdc9865e	-0.09840082
35	0x3e78a155	0.24280293
36	0x3e252d0e	0.16130468
37	0x3eb5e4cb	0.35526118
38	0x3c348ddf	0.011020153
39	0x3ee1f106	0.441292
40	0x3db73e98	0.08947486
41	0x3da936a9	0.08262379
42	0xbdebff9f	-0.11523365
43	0x3e8c406c	0.273929
44	0x3e493dfb	0.1965255
45	0xbd981015	-0.074249424
46	0x3e23d870	0.16000533
47	0xbd61058a	-0.054936923
48	0xbc94f18b	-0.018181583
49	0xbea65ab4	-0.32491076
50	0xbe92256d	-0.2854418
51	0x3db37de3	0.08764245
52	0x3eb579e4	0.35444558
53	0xbe4cae31	-0.19988324
54	0x3d0bcedd	0.034132827
55	0x3e65b183	0.22430997
56	0xbe085b8b	-0.13316171
57	0x3e582b3b	0.21110241
58	0x3eb3b384	0.35097897
59	0x3e07fb4d	0.13279457
60	0xbd29ec65	-0.04148521
61	0x3e0eb757	0.13937126
62	0x3e0435ab	0.12911098
63	0x3e8293ab	0.25503287
64	0x3e113e0a	0.14183822
65	0x3dc17a48	0.094471514
66	0x3e19b8b2	0.15011862
67	0xbbba6f94	-0.0056895707
68	0x3d943a77	0.07237714
69	0xbe1a476b	-0.15066306
70	0xbdfff5ec	-0.12498078
71	0x3e48467d	0.19558139
72	0xbd0ed308	-0.034869224
73	0x3e36bc02	0.17845157
74	0x3dfaeb7d	0.12251947
75	0xbd2833ba	-0.041064955
76	0x3e23980b	0.15975969
77	0xbbf2cb0a	-0.007409458
78	0x3e294e26	0.16533718
79	0xbcb664c2	-0.022264842
80	0x3e0f57b2	0.13998297
81	0x3e21eafd	0.15812297
82	0x3e60b88f	0.21945404
83	0x3c7fbb2d	0.015608591
84	0x3db79eaa	0.0896581
85	0x3e54b8dc	0.20773643
86	0x3de8c1a6	0.113650605
87	0xbd8853f3	-0.06656637
88	0xbda9ebd9	-0.082969375
89	0x3e424464	0.18971401
90	0x3e3b0107	0.1826211
91	0x3d5ddaad	0.054163624
92	0x3e2e77b7	0.17037855
93	0x3e6918e6	0.22763404
94	0x3e26b23a	0.16278926
95	0x3e77b900	0.24191666
96	0x3e284967	0.16434251
97	0x3b62f16c	0.0034628762
98	0x3e8066af	0.2507834
99	0x3da12345	0.07868055
100	0x3d92bf12	0.0716535
101	0x3e83b522	0.2572413
102	0x3e850306	0.2597887
103	0xbd5e3f5d	-0.054259647
104	0xbcd93968	-0.026516631
105	0x3e799bcd	0.2437584
106	0xbda73739	-0.0816483
107	0x3d206e86	0.039167903
108	0xbcadc8a9	-0.021213846
109	0xbe30fa8a	-0.17283073
110	0xbbe75f12	-0.007060894
111	0x3e08eada	0.13370839
112	0xbda742e5	-0.08167056
113	0x3e8833fc	0.2660216
114	0xbd7e95f6	-0.062154733
115	0x3dd95235	0.10611383
116	0x3ce19f5d	0.02754181
117	0x3ea05aeb	0.31319365
118	0x3d9933ab	0.07480558
119	0x3de75a1b	0.11296483
120	0x3de9ff15	0.11425606
121	0x3e0ae0c3	0.13562302
122	0xbe3cde73	-0.18444233
123	0xbe1c1e5d	-0.15245958
124	0x3ed00caf	0.40634677
125	0x3e83f10e	0.25769848
126	0x3beb0961	0.007172749
127	0x3d87b7ee	0.06626879
128	0xbdae4fcf	-0.08511316
129	0x3dcbb0b2	0.09945811
130	0x3cc63acf	0.024197964
131	0xbdb7ad03	-0.08968546
132	0xbeb65018	-0.35607982
133	0xbd04b285	-0.032396812
134	0xbd40e199	-0.047090147
135	0xbd64f59d	-0.055898298
136	0xbce8a70b	-0.028399965
137	0xbdfae70f	-0.12251102
138	0x3dbf4532	0.0933937
139	0x3d17013a	0.036866404
140	0x3d6b7320	0.05748284
141	0x3caed788	0.021343008
142	0x3e8bae61	0.27281478
143	0x3dde5ed6	0.10857932
144	0x3d842e2f	0.06454121
145	0x3ea20db8	0.31651092
146	0x3da14e41	0.07876254
147	0x3bbc4831	0.0057459106
148	0x3e85c013	0.26123103
149	0xbe907477	-0.28213856
150	0x3e1fcf28	0.15606368
151	0x3e77fbf9	0.24217214
152	0xbc357cf0	-0.011077151
153	0x3d341714	0.04396732
154	0xbbe37484	-0.00694138
155	0xbe210220	-0.15723467
156	0xbd364abe	-0.044504873
157	0x3d35de38	0.044401377
158	0xbc9136a7	-0.017726256
159	0xbe25ca7e	-0.16190526
160	0x3ccba6e2	0.02485985
161	0x3e8b4877	0.27203724
162	0xbe1a99e6	-0.1509777
163	0x3e059374	0.1304453
164	0x3dfa83dd	0.12232182
165	0xbd191661	-0.037374858
166	0x3dd94659	0.10609121
167	0x3d3dcfbf	0.0463407
168	0xbe9cdc2c	-0.30636728
169	0xbd047b99	-0.032344434
170	0xbe122317	-0.14271198
171	0x3df8c44a	0.12146814
172	0x3e2f8d77	0.17143808
173	0x3e86b6ff	0.2631149
174	0x3de065fa	0.109569505
175	0x3d2735d1	0.040822808
176	0x3c25d5ad	0.010121745
177	0xbdb1a4a9	-0.086739846
178	0x3c37d469	0.011220076
179	0x3e00ef52	0.12591293
180	0xba7d4aac	-0.0009662311
181	0x3cef1116	0.029182952
182	0xbc590578	-0.013245933
183	0x3dd8ae5a	0.1058013
184	0xbc732495	-0.014840265
185	0x3e279e95	0.16369088
186	0x3d9d8425	0.0769122
187	0x3cdb0c49	0.026739256
188	0xbdbbcd67	-0.09170037
189	0x3e249200	0.1607132
190	0xbe420a33	-0.18949203
191	0x3e72fce5	0.23729284
192	0x3df35ef1	0.11883343
193	0xbe31f301	-0.17377855
194	0xbd23ed42	-0.04002119
195	0x3d9e3f62	0.07726933
196	0xbbbb2e7a	-0.0057123275
197	0x3d31e4d6	0.043431126
198	0xbc8b161d	-0.016978318
199	0x3dd6c5dc	0.104869574
200	0x3d54c6ea	0.05194751
201	0xbea059ad	-0.31318417
202	0x3e8306ff	0.25591275
203	0x3dcf913a	0.10135122
204	0x3da12b53	0.078695916
205	0x3e888662	0.26665026
206	0xbd6f7558	-0.058461517
207	0x3dcdc38f	0.100470655
208	0x3e54c3cc	0.20777816
209	0x3d2fa44b	0.04288129
210	0x3e30a390	0.17249894
211	0xbdf1dc99	-0.11809654
212	0x3ddef018	0.10885638
213	0xbda44efc	-0.080228776
214	0xbd22a36f	-0.039706644
215	0x3e4da770	0.20083404
216	0x3eb7acf0	0.35874128
217	0xbda0ce4f	-0.0785185
218	0xb93a98c2	-0.00017795249
219	0x3ea182a0	0.3154497
220	0x3daa7a26	0.08324079
221	0xbd46d96d	-0.048547197
222	0x3d420018	0.04736337
223	0x3e4e0817	0.20120274
224	0x3e71c44d	0.23610039
225	0x3cb62256	0.02223317
226	0xbc18541b	-0.009297396
227	0x3d68f137	0.056870665
228	0xbd462a1a	-0.048379995
229	0x3e3f85ec	0.18703431
230	0x3e1bf96c	0.15231866
231	0x3e10133b	0.14069836
232	0xbe3d3d5e	-0.18480441
233	0xbc08afcd	-0.008342695
234	0x3cba68f8	0.022755131
235	0x3c8ae5a9	0.016955214
236	0xbc2a6088	-0.010398991
237	0xbd9fa3ea	-0.07794936
238	0x3df116af	0.11771905
239	0x3d324171	0.04351944
240	0xbc5e403d	-0.01356512
241	0x3db4ed7f	0.08834361
242	0x3d71c936	0.05902978
243	0xbe0188f5	-0.12649901
244	0xbd11e9e4	-0.035623446
245	0x3dcc1ec7	0.09966808
246	0x3e60ea3a	0.2196435
247	0x3e46192a	0.19345537
248	0xbcbe7fbf	-0.023254273
249	0x3dd1ce33	0.102444075
250	0x3b824f61	0.003976748
251	0xbd919463	-0.07108381
252	0x3e52a0f9	0.20569219
253	0x3e25fb5d	0.16209169
254	0x3e3310e7	0.17486916
255	0xbe5ab7a0	-0.2135911

sequential_2/dense_10/MatMul f4 [32, 64]
0	0x3e3389c3	0.1753302
1	0x3e15317d	0.1456966
2	0xbe83e828	-0.2576306
3	0x3cf0bb62	0.029386226
4	0x3bd3c4c5	0.0064626657
5	0x3e7ff981	0.24997522
6	0xbe12a58d	-0.14320965
7	0xbcd7d336	-0.02634583
8	0xbdeb8a1b	-0.11500951
9	0x3e06811b	0.13135187
10	0x3dd9816f	0.106203906
11	0xbd893c45	-0.067009486
12	0x3e241591	0.16023852
13	0xbdfa6b78	-0.12227529
14	0x3ebfeecf	0.37486884
15	0xbe2ef485	-0.17085464
16	0x3e410324	0.18848854
17	0xbce13586	-0.027491342
18	0xbe8a1b19	-0.269738
19	0xbef80a3a	-0.48445302
20	0xbdf66836	-0.120315954
21	0xbe738410	-0.23780847
22	0xbcaead33	-0.021322822
23	0xbe88be59	-0.26707724
24	0xbd3c9411	-0.046039645
25	0x3d34b7e8	0.0441207
26	0x3d976a27	0.07393294
27	0x3ea8b842	0.32953078
28	0x3e0b427d	0.13599582
29	0x3e3b05a6	0.18263873
30	0x3e826f79	0.25475672
31	0xbd8e4569	-0.06946833
32	0x3eb4cf15	0.3531424
33	0x3db58e52	0.08865036
34	0x3e99549e	0.2994737
35	0x3e24bb4b	0.16087072
36	0x3ea4c374	0.3218037
37	0x3e13f295	0.14448006
38	0xbea942e3	-0.33058843
39	0x3e924cf3	0.28574333
40	0x3ed30e61	0.41221908
41	0x3de1be03	0.1102257
42	0x3e6b3e30	0.22972941
43	0xbe964573	-0.2934986
44	0x3d6b8d34	0.05750771
45	0x3ea69a10	0.32539415
46	0x3da4a668	0.08039552
47	0x3c50455c	0.012711849
48	0xbe560eb8	-0.20904052
49	0xbdf0b0de	-0.11752485
50	0xbe89803c	-0.26855648
51	0xbc73e963	-0.014887187
52	0x3d866dd5	0.065639175
53	0xbdd4ad8d	-0.10384665
54	0xbe727e89	-0.23681082
55	0x3e9662dd	0.29372302
56	0x3e2f11ec	0.1709668
57	0xbe59d645	-0.21273144
58	0x3e944d1b	0.28965077
59	0x3b9e5491	0.0048318584
60	0xbd880450	-0.066414475
61	0x3d987edf	0.07446074
62	0x3e93d83c	0.2887591
63	0xbea04541	-0.31302837
64	0x3e80aafc	0.2513045
65	0x3e47be39	0.19506158
66	0xbe998614	-0.29985106
67	0x3e9035cf	0.28166053
68	0x3e1ef944	0.15524775
69	0x3e4036f5	0.18770964
70	0xbee140ab	-0.4399465
71	0x3dc9965e	0.098431334
72	0xbdb4c83f	-0.088272564
73	0xbe927f3f	-0.28612706
74	0x3c859090	0.016304284
75	0xbe988dcc	-0.29795682
76	0x3d9385c5	0.07203249
77	0x3d6fe7d6	0.058570705
78	0x3e9f1cc5	0.31076637
79	0xbdfae7e3	-0.1225126
80	0xbe53b085	-0.20672806
81	0xbe2ccc4b	-0.16874807
82	0x3d351bc2	0.044215925
83	0xbe0a0867	-0.13479768
84	0x3e04ea97	0.12980114
85	0xbdd570f6	-0.10421936
86	0xbd922abe	-0.07137059
87	0xbe674012	-0.22583035
88	0xbe4e43fa	-0.20143119
89	0x3ebd763b	0.37004265
90	0x3de394a5	0.11112336
91	0xbe32cb35	-0.1746033
92	0x3c3041d5	0.010757883
93	0x3eb60382	0.3554955
94	0x3ee9152c	0.45523965
95	0xbe4fef58	-0.20306146
96	0xbe5290f7	-0.20563112
97	0x3e7f877a	0.24954024
98	0x3ecdb76c	0.40179002
99	0xbe719444	-0.23591715
100	0x3e9ca62c	0.3059553
101	0x3e999eda	0.30004007
102	0x3e3874c9	0.180133
103	0x3e79b876	0.24386773
104	0xbe2fe282	-0.1717625
105	0x3e206945	0.15665157
106	0x3ea0bc35	0.3139359
107	0xbe71d7fd	-0.23617549
108	0xbe0f95c4	-0.14021975
109	0xbe558a61	-0.20853569
110	0xbe0cf1d9	-0.13764133
111	0x3e66cafb	0.22538368
112	0xbea28e16	-0.31749028
113	0xbed82e8e	-0.42223018
114	0xbcd0c4b5	-0.025484422
115	0x3e23d433	0.15998916
116	0xbb9c365b	-0.004767222
117	0xbe1d330b	-0.15351503
118	0x3e194531	0.149678
119	0xbe5f1fde	-0.217895
120	0x3e60071e	0.21877715
121	0x3dc97086	0.09835915
122	0x3ed03bc0	0.40670586
123	0xbe21d4b7	-0.158038
124	0x3df8bcb9	0.12145371
125	0xbe084d96	-0.13310847
126	0x3dab26fe	0.083570465
127	0x3e4291da	0.1900095
128	0x3eaf019c	0.34180915
129	0xbda16c9d	-0.078820445
130	0xbeb01d10	-0.34397173
131	0x3e99de77	0.3005254
132	0x3ea9fdd5	0.3320147
133	0x3e35d2ec	0.17756242
134	0xbd0340de	-0.032044284
135	0x3e4fd044	0.20294291
136	0xbe8d0464	-0.27542412
137	0xbd20780d	-0.03917699
138	0xbe400581	-0.187521
139	0xbd063a89	-0.032770667
140	0x3e620b67	0.22074662
141	0x3e80befb	0.25145707
142	0xbdae000a	-0.08496101
143	0xbdc01849	-0.09379632
144	0x3dcf1960	0.10112262
145	0xbde7b187	-0.113131575
146	0x3e07b77d	0.13253589
147	0x3db0da75	0.08635417
148	0xbdd3c218	-0.10339755
149	0xbcb6e95d	-0.022328073
150	0x3e63f3e2	0.22261003
151	0x3dfc491a	0.123186305
152	0xbe294874	-0.16531545
153	0x3e9ef97f	0.31049725
154	0x3e334a97	0.17508923
155	0xbd7e344a	-0.062061585
156	0x3d8d2df8	0.068935335
157	0xbe152d57	-0.14568077
158	0xbe2abc0e	-0.166733
159	0x3e6c33d5	0.23066647
160	0x3eaecd44	0.3414098
161	0x3dd1bf99	0.102416225
162	0xbddb8a2e	-0.10719715
163	0x3e0594c5	0.13045032
164	0xbd097200	-0.033555984
165	0xbd4785c6	-0.04871156
166	0x3dc32357	0.09528225
167	0x3d8430d9	0.064546295
168	0xbe715ad1	-0.235698
169	0x3e15a824	0.14614922
170	0xbd330bb0	-0.043712318
171	0xbee30060	-0.44336224
172	0x3dc1c319	0.0946104
173	0x3e2d8cc3	0.16948228
174	0xbdf2853f	-0.11841821
175	0xbd216f48	-0.039412767
176	0x3e2fc82e	0.17166206
177	0xbe919340	-0.28432655
178	0x3d36a1ed	0.04458802
179	0xbd89c419	-0.06726856
180	0xbee4b3a1	-0.44668296
181	0xbdeb4e25	-0.11489514
182	0xbdfa3b04	-0.122182876
183	0xbd396865	-0.045265574
184	0xbea2755f	-0.31730172
185	0xbcdec9f9	-0.027195917
186	0x3a648dd0	0.00087186415
187	0x3d8decf4	0.06929961
188	0x3b7ba541	0.003839806
189	0xbdeaf3cb	-0.11472281
190	0x3e2403f9	0.1601714
191	0xbe043b5c	-0.12913269
192	0x3e46f8ec	0.19430894
193	0xbe8a3693	-0.26994762
194	0x3eabb769	0.33538368
195	0xbde4642a	-0.11151917
196	0xbe0cdfec	-0.13757294
197	0x3cf7273c	0.030170076
198	0x3ca34db3	0.01993451
199	0xbe17898c	-0.14798564
200	0x3e8f3d25	0.27976337
201	0xbd8b721f	-0.06808876
202	0xbd6f1ab6	-0.058375083
203	0x3ec1f927	0.378854
204	0xbe6bc896	-0.23025736
205	0xbe728f2a	-0.23687425
206	0xbd891b8b	-0.066947065
207	0x3d1ea191	0.0387283
208	0xbcf2b7c8	-0.02962865
209	0x3e851e17	0.2599952
210	0xbd23c711	-0.039984766
211	0xbdb5fab1	-0.08885706
212	0x3e963e82	0.29344565
213	0xbcb6633c	-0.022264116
214	0xbe3fb801	-0.18722536
215	0x3eab0663	0.3340331
216	0xbe2cd138	-0.16876686
217	0x3e29972d	0.16561575
218	0xbe7e5078	-0.24835384
219	0x3e26d2f8	0.16291416
220	0x3e0d1e1e	0.1378102
221	0x3e45187e	0.19247624
222	0x3d0be9d5	0.034158546
223	0xbe873996	-0.26411122
224	0xbe7d8114	-0.2475627
225	0xbccfc858	-0.025364086
226	0xbd4a0ad2	-0.049326725
227	0x3e939125	0.28821674
228	0x3e818c93	0.25302562
229	0xbe51082a	-0.2041327
230	0xbc9d0498	-0.01916723
231	0xbd662400	-0.056186676
232	0xbe53c4a7	-0.20680486
233	0x3ddee325	0.10883168
234	0xbd71aafa	-0.059000947
235	0x3e7bc076	0.24585137
236	0x3c10b3bc	0.0088319145
237	0x3e3d0edc	0.184627
238	0x3ea53bdb	0.3227223
239	0xbe8911bf	-0.26771352
240	0x3e40756b	0.18794791
241	0x3e8ba470	0.27273893
242	0xbc73e522	-0.0148861725
243	0x3dc11e63	0.09429624
244	0x3d03e37b	0.032199364
245	0x3e47a031	0.19494702
246	0xbdaf8a1a	-0.08571263
247	0x3ea728fe	0.32648462
248	0xbd9e6f18	-0.07736033
249	0x3c2bcbd7	0.010485611
250	0x3dd5ad3a	0.10433431
251	0x3e2275d0	0.15865254
252	0xbdf08740	-0.11744547
253	0x3ded71d7	0.11593979
254	0xbd8b3105	-0.06796459
255	0x3d9b7149	0.07589967

sequential_2/dense_11/MatMul f4 [22, 32]
0	0xbe76e1bc	-0.24109548
1	0x3d883092	0.06649889
2	0xbd07d71d	-0.033164132
3	0xbf02d9a7	-0.5111336
4	0x3ec56837	0.38556072
5	0xbdc71371	-0.09720505
6	0xbee4c599	-0.44682005
7	0x3e89fbce	0.26949924
8	0xbf1b17d8	-0.6058326
9	0xbd6ed58b	-0.05830912
10	0xbf6be667	-0.9214844
11	0xbed11293	-0.40834484
12	0x3d9823e0	0.074287176
13	0xbd7f644b	-0.062351506
14	0x3e9fa26e	0.31178612
15	0xbde4f416	-0.11179368
16	0x3a1665f1	0.00057372364
17	0xbf189e59	-0.5961662
18	0xbe9d1938	-0.30683303
19	0x3e2e8886	0.17044267
20	0xbec13e8e	-0.37743038
21	0x3e20ce7d	0.15703769
22	0xbe447a89	-0.19187368
23	0xbe9eb36c	-0.30996263
24	0xbea0bf16	-0.31395787
25	0x3ea78c7e	0.32724375
26	0x3ea3c751	0.31988004
27	0xbe8f049d	-0.27933207
28	0x3e691028	0.2276007
29	0xbec6402a	-0.38720828
30	0xbe9a78d0	-0.30170298
31	0xbe57307f	-0.21014594
32	0xbcef45dc	-0.029208116
33	0x3e5cd3ea	0.21565214
34	0xbed9dcd1	-0.42551282
35	0xbf384255	-0.71976215
36	0xbed53d58	-0.41648364
37	0xbc817602	-0.01580334
38	0x3ddd020a	0.107914045
39	0x3ed3d148	0.41370606
40	0xbf06c3ab	-0.52642316
41	0xbe93c2a6	-0.28859442
42	0xbf57b08f	-0.8425378
43	0xbebf785d	-0.37396517
44	0xbf2f2316	-0.6841291
45	0xbe3d49c7	-0.18485175
46	0x3cb66f2b	0.022269806
47	0x3e927d77	0.28611347
48	0xbeaa4cec	-0.33261812
49	0xbca17af5	-0.01971195
50	0x3ee8fb77	0.45504352
51	0xbe4d77b0	-0.20065188
52	0x3e7a3dee	0.24437687
53	0xbe87c6f0	-0.26518965
54	0xbdd775bc	-0.10520503
55	0x3debdf18	0.11517161
56	0xbdca2b76	-0.09871571
57	0xbe9ae24e	-0.30250782
58	0x3ebcf558	0.36905932
59	0xbec5b8ae	-0.38617462
60	0x3e8dedae	0.27720398
61	0xbebde639	-0.37089708
62	0x3e38c676	0.18044457
63	0xbf5ca3b9	-0.8618732
64	0xbe699055	-0.22808965
65	0x3c436b23	0.011927399
66	0x3ebead10	0.3724141
67	0xbebbe36b	-0.36696944
68	0xbe37c697	-0.1794685
69	0xbe580673	-0.2109621
70	0xbe699497	-0.22810589
71	0xbe9d16ca	-0.3068145
72	0xbd85e57e	-0.06537913
73	0xbeb5e4aa	-0.3552602
74	0xbe5ebfd6	-0.21752867
75	0xbdc26586	-0.0949202
76	0xbeec02e8	-0.46095967
77	0x3d26bb8a	0.040706195
78	0x3e4c08a2	0.19925168
79	0x3ee803db	0.4531544
80	0xbed0f5d4	-0.40812552
81	0xbe077afb	-0.13230507
82	0x3d3f1472	0.046650358
83	0x3e245230	0.16046977
84	0x3e316189	0.17322363
85	0xbb3eca8e	-0.0029112431
86	0xbc72a508	-0.014809854
87	0x3eda1694	0.4259535
88	0x3ea44179	0.32081202
89	0xbf1058ed	-0.5638569
90	0xbf234c7b	-0.63788575
91	0xbe667075	-0.22503836
92	0x3d87e399	0.06635208
93	0x3e0de0a6	0.13855228
94	0xbe0c0645	-0.13674267
95	0x3cebd92e	0.028790083
96	0xbf064619	-0.5245071
97	0x3dc3c215	0.095585026
98	0x3e7e5f5e	0.24841067
99	0xbd8dd4b8	-0.069253385
100	0x3a950e60	0.0011372082
101	0x3ee1df50	0.44115686
102	0x3dc6abbf	0.09700727
103	0x3e9e8768	0.30962682
104	0x3e0f4eca	0.139949
105	0x3ec1d5e3	0.37858495
106	0xbf1fa0e6	-0.62354887
107	0xbe196c12	-0.14982632
108	0xbdbd6403	-0.09247591
109	0x3d59da90	0.053186953
110	0xbe544582	-0.2072964
111	0xbe56c14d	-0.20972176
112	0xbf07b79c	-0.5301454
113	0x3e7588cc	0.23977965
114	0xbcc04c81	-0.02347398
115	0x3da8b614	0.08237854
116	0xbf2bdd1f	-0.6713428
117	0x3e00ceb8	0.12578857
118	0x3c5ffa9f	0.013670593
119	0xbe19c330	-0.15015864
120	0x3e6e364a	0.23262897
121	0x3ed8f25f	0.42372414
122	0xbede577d	-0.43426123
123	0xbec23834	-0.37933505
124	0xbeb230bf	-0.34802815
125	0xbe161fcb	-0.14660566
126	0x3d89c076	0.06726162
127	0xbed4d261	-0.41566756
128	0xbeff5ddc	-0.49876297
129	0xbe4360e8	-0.19079936
130	0xbe9686a3	-0.29399595
131	0xbe4a0735	-0.19729312
132	0x3dfcdd84	0.12346938
133	0xbef61a27	-0.48066828
134	0xbe9a695b	-0.30158505
135	0xbe14843b	-0.14503567
136	0xbe414f71	-0.1887796
137	0xbe93673e	-0.28789705
138	0x3e1d9e3b	0.15392391
139	0x3c949adb	0.018140247
140	0x3da06f91	0.078337796
141	0x3e865021	0.26233009
142	0x3e8907e7	0.26763842
143	0xbea7a90d	-0.32746163
144	0x3e407309	0.18793882
145	0xbf357396	-0.70879495
146	0x3de175f1	0.11008824
147	0x3e9120f9	0.2834547
148	0xbe6953c0	-0.22785854
149	0x3df3a0da	0.118959144
150	0x3bb86b13	0.0056279986
151	0xbf09c1e2	-0.53811467
152	0xbe8f96ae	-0.28044647
153	0xbd79e27e	-0.061007015
154	0xbacf38b2	-0.0015809743
155	0xbd0668b0	-0.03281468
156	0xbf0b2b42	-0.5436288
157	0xbd4ca4a6	-0.04996171
158	0x3ed9374f	0.4242501
159	0x3e413e5a	0.18871441
160	0x3edb39a5	0.42817417
161	0x3e8b72f1	0.2723613
162	0xbe3b2b24	-0.18278176
163	0xbf18d553	-0.59700507
164	0x3d5c9749	0.053855214
165	0x3e94469f	0.2896013
166	0xbe3f4743	-0.18679528
167	0x3e0c0449	0.1367351
168	0x3eab2f28	0.33434415
169	0x3e8e1161	0.27747634
170	0xbf1dd13f	-0.6164741
171	0xbeb1a756	-0.3469798
172	0x3e7079a6	0.23483905
173	0xbef49c77	-0.47775623
174	0xbef44141	-0.47706035
175	0xbeb0d971	-0.34540895
176	0x3d951e9a	0.072812274
177	0x3e0a3351	0.13496138
178	0xbebc46b3	-0.3677269
179	0x3dfff2d4	0.12497488
180	0xbec6d8a8	-0.3883717
181	0x3d91b60f	0.07114803
182	0xbe36a51b	-0.1783642
183	0xbe820a98	-0.25398707
184	0x3e9b21f5	0.30299345
185	0xbeb4dfba	-0.3532694
186	0xbe94becc	-0.29051816
187	0xbe2d3387	-0.16914187
188	0xbf11fca2	-0.5702611
189	0x3d5bc313	0.053652834
190	0xbead87af	-0.3389258
191	0xbd88782b	-0.06663545
192	0x3ec4e319	0.38454512
193	0x3edfae73	0.43687782
194	0xbe6e4f7f	-0.23272513
195	0xbd23ac1d	-0.039959062
196	0xbecc78bc	-0.39935863
197	0xbdf582a1	-0.11987806
198	0xbead5652	-0.3385492
199	0xbd7ed971	-0.062219087
200	0xbf0418a8	-0.5160012
201	0x3d6d9797	0.058005895
202	0xbf02bcc7	-0.510693
203	0xbe40de9a	-0.18834916
204	0xbda84d88	-0.08217913
205	0xbf08379a	-0.5320984
206	0xbeb8cf39	-0.36095598
207	0xbf16e3d5	-0.58941394
208	0x3e2fc95a	0.17166653
209	0x3e709e8b	0.2349798
210	0x3e203339	0.1564454
211	0xbdb3de16	-0.08782594
212	0x3e4ab445	0.1979533
213	0xbf36dc7a	-0.7143017
214	0x3e28bfc6	0.16479406
215	0xbec1cab1	-0.37849954
216	0x3ded070c	0.1157361
217	0xbf22e45f	-0.63629717
218	0xbe80cd88	-0.25156808
219	0xbf1cac2e	-0.61200225
220	0xbe294a96	-0.16532359
221	0x3ead1c12	0.33810478
222	0xbec0e8bf	-0.3767757
223	0xbdef13ea	-0.1167372
224	0xbe924493	-0.28567943
225	0xbe944d2c	-0.28965127
226	0x3de9dce5	0.114190854
227	0xbef4150a	-0.47672302
228	0x3d01c3e5	0.03168096
229	0x3e951555	0.29117838
230	0x3d250d64	0.040295973
231	0x3e9919f7	0.29902622
232	0x3e154a6f	0.14579175
233	0x3e8e6f76	0.27819413
234	0xbe623245	-0.22089489
235	0xbe92fa62	-0.28706652
236	0xbf184704	-0.5948336
237	0xbe9df638	-0.30851912
238	0xbe70b06e	-0.23504803
239	0x3eb06a90	0.344563
240	0xbe8641db	-0.2622212
241	0xbd53c237	-0.05169889
242	0xbe9fd8dd	-0.3122014
243	0xbe16456b	-0.14674918
244	0xbdbd95cb	-0.09257086
245	0x3ea52078	0.32251334
246	0x3e165741	0.14681722
247	0x3e9a6bfe	0.30160517
248	0x3d4acba8	0.049510628
249	0xbd806cab	-0.06270727
250	0xbe90453a	-0.28177816
251	0xbea9e14b	-0.33179697
252	0x3eb08653	0.3447748
253	0xbe098cf1	-0.13432671
254	0xbea6a102	-0.32544714
255	0xbf665c3c	-0.8998449
